data.pth (torch, 7039 bytes, 6 tensors)

layer1.weight f4 [8, 93]
000000 9e ce c8 3e d5 64 36 be 06 df c0 3a 62 dc d4 3e
       0.39220136 -0.17811902 0.0014714904 0.4157439
000010 5c 6e 40 3f d4 df 77 3e 05 ec 80 bc af 79 fc 3e
       0.75168395 0.24206477 -0.015737543 0.49311587
000020 8f 53 0f 3f f6 ff 9d 3c 54 ce 08 bf e0 5e 96 3e
       0.55986875 0.01928709 -0.5343983 0.2936926
000030 16 b6 bb 3e 99 3e 26 3f 55 a8 cc be 67 e2 7c 3e
       0.36662358 0.64939266 -0.39972177 0.2469574
000040 2d b0 0a be 6d 1b eb be 2a 52 cc be 6e f6 09 bf
       -0.13543768 -0.45919362 -0.39906436 -0.53891647
000050 2a 04 3a be 07 d7 e5 3e 6d 21 2b 3f 12 12 94 be
       -0.18165651 0.44890615 0.6684788 -0.28920037
000060 fc 8c 8a be cc 9a cc be 7b 14 03 3f 68 55 55 3f
       -0.27060688 -0.3996185 0.51203126 0.83333445
000070 e8 d9 40 3f e1 9c e4 3e a4 6f 9b be 08 df 93 be
       0.753325 0.4465094 -0.30358613 -0.28881097
000080 f4 cb 18 3e 2b 7a e8 3d fd 3d c7 be b4 9c cc be
       0.14921552 0.11351427 -0.3891448 -0.39963305
000090 7d ed 09 be cc 66 50 3f e4 7d 36 be 34 1a 35 3f
       -0.13469501 0.81406856 -0.17821461 0.7074311
0000a0 68 18 bd bd 1b 2d e5 bd f3 2e a8 bd 68 d6 26 bf
       -0.09233171 -0.11190244 -0.0821208 -0.6517091
0000b0 fc 08 ec bc d1 da ea 3e 9f 56 44 be 31 ce fc 3e
       -0.028812878 0.4587007 -0.19173668 0.49376062
0000c0 68 ac da be 74 00 86 bb b5 35 b6 bd 49 13 1f bf
       -0.4270966 -0.0040894095 -0.088969626 -0.621388
0000d0 c3 9b 80 be 46 99 9c be 4f a5 fe 3e 7b 4a fa bd
       -0.25118837 -0.30585688 0.49735495 -0.12221237
0000e0 40 6e 80 3e 60 72 73 3e 90 e6 03 bf 33 1b a9 3e
       0.25084114 0.237741 -0.51523685 0.33028564
0000f0 e8 51 02 be 80 46 fe be d5 4a c3 be 80 38 fb 3e
       -0.12726557 -0.49663162 -0.3814303 0.49066544
000100 e5 01 98 3e 64 63 07 3f 61 92 cc be 51 f6 58 3f
       0.29688945 0.52886033 -0.39955428 0.8475085
000110 62 e4 2a 3e 74 87 3b 3f 11 a5 c3 be 3e c6 23 bd
       0.16688684 0.7325356 -0.38211873 -0.03998398
000120 81 3a b3 be 2e 27 8c 3e dc e2 40 be 5f 7b 50 3b
       -0.35005572 0.27373642 -0.1883654 0.0031811816
000130 70 32 89 3f 5a a7 fb 3e 7d 24 fc 3e bf 61 f0 3b
       1.0718517 0.49151117 0.49246588 0.007335871
000140 c4 13 2a bd a3 75 2b 3f 4a a8 11 be 8e 3b 06 be
       -0.041522756 0.66976374 -0.14224353 -0.13108656
000150 7e a1 d7 3e e7 4c 76 be 8f cc 77 3e 3f db 44 3e
       0.42115396 -0.24052773 0.24199127 0.19224261
000160 32 1a 69 be 5b 25 65 3e 39 12 06 3f 99 7d 0b 3e
       -0.22763899 0.22377531 0.52371556 0.1362213
000170 e4 0e 03 bf 4b 74 a9 3c 3f c2 62 3f 33 23 2c 3f
       -0.51194596 0.020685336 0.88577646 0.6724121
000180 88 4e d2 be 1d 93 78 bf c1 61 4b 3f c8 70 ee 3e
       -0.4107554 -0.9709948 0.79446036 0.4657042
000190 2a 75 8f be df 1c 05 bf 95 19 a2 bd 2e 23 79 3f
       -0.28019077 -0.5199718 -0.07915036 0.97319305
0001a0 3b c4 25 3f 43 12 81 bc fa da d9 be f2 42 1f bf
       0.6475255 -0.015755778 -0.42549878 -0.62211525
0001b0 d2 e7 a2 be 17 f4 7d bc ed 05 20 3f 53 72 b7 3e
       -0.3181749 -0.01550009 0.6250904 0.3582941
0001c0 36 04 00 bf 18 ac 06 3f b1 a8 ce 3e 84 c9 37 bf
       -0.50006425 0.52606344 0.40363076 -0.71791863
0001d0 a0 e3 cb 3e 62 5a 43 be 1b 35 25 bf 8f af 22 bf
       0.39822102 -0.19077447 -0.6453416 -0.6354913
0001e0 f7 17 55 be 1f ea 2a bf 32 01 c5 3d d8 9c 4a 3f
       -0.20809923 -0.6676349 0.096193686 0.79145575
0001f0 b9 54 3c be 08 4b 79 3e d3 16 96 be 98 11 6f 3e
       -0.18391694 0.24345028 -0.29314288 0.23346555
000200 7b 09 3d bf c4 92 8a bd 9c 4a 28 bf 0b 3b 68 bd
       -0.7384259 -0.067662746 -0.65738845 -0.056696933
000210 2e bd e4 bd 51 cb 61 bc 61 d1 e6 bc 14 a8 bb bc
       -0.11168896 -0.013781385 -0.028176012 -0.022907294
000220 3f 02 2b 3f 5f f5 42 3d 04 fc bb be b7 d8 2d be
       0.668003 0.047597285 -0.3671571 -0.16977201
000230 79 9a 39 3f 22 ef 2e 3f 92 50 23 3f 58 91 1c 3f
       0.7250133 0.6833364 0.63794816 0.61159277
000240 b5 70 70 3f 29 26 02 3f 10 10 00 bf fb 4d 1b bf
       0.9392198 0.5083948 -0.5002451 -0.60665864
000250 7e 25 11 3f 3e 19 ec 3e 02 31 36 be a6 16 eb 3e
       0.56697834 0.46113008 -0.17792132 0.45915717
000260 49 e3 a1 be 21 77 69 be 70 da ad be a9 0b 32 3f
       -0.31618717 -0.2279935 -0.33955717 0.6954904
000270 92 d7 91 3e 2e 59 4d be 13 06 45 be 38 68 21 bf
       0.2848478 -0.2005355 -0.19240598 -0.6304965
000280 33 a5 e5 3e 68 5f 68 be 19 96 c9 3e 52 6f ca be
       0.448526 -0.22692645 0.39372328 -0.39538056
000290 3b 64 06 3f e2 8c 20 3f 64 e6 8d be 9e b7 ed bd
       0.5249669 0.6271497 -0.27714837 -0.11607288
0002a0 c3 4b 6f 3f 20 c1 61 be c5 81 0f 3e f2 f6 93 bd
       0.9347498 -0.22046328 0.14014347 -0.072248355
0002b0 36 c6 15 bd fe 97 12 3f fe 3c 83 3e 67 87 1f be
       -0.03656598 0.5726317 0.2563247 -0.15578996
0002c0 18 ef 9d be 84 1a df be a7 8e 88 3e eb 7e 2a 3f
       -0.30846477 -0.43574917 0.26671335 0.6659991
0002d0 70 b3 c7 3e 1c a9 eb bd 25 48 63 be 35 9f e5 3e
       0.39004087 -0.115068644 -0.2219549 0.44848028
0002e0 f5 fb 03 3f 00 b7 14 3f 17 a2 d3 3e b4 fc 11 3f
       0.5155633 0.58091736 0.41334602 0.5702622
0002f0 55 8f ac 3e 16 0b 69 3d 9a 0b ad 3d bc c9 51 3f
       0.33703104 0.056895338 0.084494784 0.8194845
000300 f5 6e ca be 7e 6f 6e 3e 78 d4 03 bd f2 6b c5 3e
       -0.39537778 0.23284718 -0.032185048 0.38558918
000310 40 5e f4 be 63 80 3e 3f a2 b4 af 3e 96 2c a9 3e
       -0.47728157 0.7441465 0.343175 0.3304183
000320 6e 29 05 bf 61 c0 12 3e ae bc e3 3c 3f ec 25 39
       -0.5201634 0.14331199 0.02779993 0.00015823635
000330 a9 3d 2a bf 62 ca d8 3e a0 71 41 3e 0f a4 b8 3e
       -0.66500336 0.42341906 0.18891001 0.36062667
000340 00 11 a4 be 56 98 32 bf cf dc 21 be aa 20 05 bf
       -0.3204422 -0.69763696 -0.15806888 -0.52002966
000350 04 e3 cd be 1a 8d 16 3f 48 df 3d bf 7d 42 00 3f
       -0.40212262 0.58809054 -0.74168825 0.50101453
000360 da 77 90 3e f3 0d 5a be 34 86 14 3e 61 00 65 3d
       0.2821644 -0.21294384 0.1450432 0.055908564
000370 fe 94 7b be a0 29 05 bf d0 33 28 3f 8a 4d 01 3e
       -0.24568555 -0.5201664 0.6570406 0.12627235
000380 ac 62 37 3f d3 23 3b 3f d3 cc 1b 3f 69 c0 22 3f
       0.71634936 0.7310154 0.6085941 0.63574845
000390 3c e4 1f 3f 9d 47 21 bf 93 4c 16 3f 76 fb 7e 3e
       0.62457633 -0.629999 0.58710593 0.24900612
0003a0 73 75 5a be 28 9d 3d 3f 7a cd 98 3d df f2 82 3e
       -0.21333866 0.74067926 0.074610665 0.2557592
0003b0 d0 9b 61 3e cc c9 32 3e 6b b7 d7 3e c6 a4 c3 be
       0.22032094 0.17459792 0.42132124 -0.3821165
0003c0 d3 01 0f 3f 1e 7f 89 3d 1a ef 15 3f 19 6d e8 3d
       0.5586216 0.06713699 0.58567965 0.11348934
0003d0 2f e5 fc be 47 a1 fb 3d e2 0a 29 bd fa 59 40 bf
       -0.49393603 0.122866206 -0.041270144 -0.75137293
0003e0 a2 bc c2 be 4f f7 1f 3f 49 b7 47 3e 9e 9a 13 3e
       -0.3803454 0.6248674 0.19503511 0.1441445
0003f0 ca 20 05 bf c6 71 4b 3f f3 cc 63 3e 34 33 4d 3f
       -0.5200316 0.7947048 0.2224615 0.80156255

layer1.bias f4 [8]
000000 2c 93 cc 3e 48 2c 3d 3f 12 1c 05 3f b9 c7 84 3f
       0.39956033 0.7389569 0.51995957 1.037345
000010 d0 8a 44 3f a0 20 8f 3f 7a c7 65 3f be 86 f4 3e
       0.7677431 1.1181831 0.897575 0.4775905

layer2.weight f4 [8, 8]
000000 d7 fd 91 bf c6 89 ab 3f e0 38 4d bf 6f 65 c9 3f
       -1.1405591 1.340142 -0.8016491 1.573408
000010 5a 4f 2a 3f 81 b8 75 3f c3 7b b6 be bd 11 48 bf
       0.6652733 0.95984656 -0.35641298 -0.78152066
000020 c9 4a 30 be 2c 4a cf 3f 74 55 0a 3f f6 4a a9 3f
       -0.17216028 1.619451 0.5403664 1.3226001
000030 c4 45 ed 3e 35 35 8f bf 3f f4 0f 3e a2 e6 dc be
       0.4634229 -1.1188112 0.14058016 -0.4314471
000040 3e d4 1e 3f 7b c7 35 3f 87 8a f9 3f ad 09 9b bf
       0.62042606 0.7100751 1.94954 -1.2112328
000050 c9 a6 a7 be 42 7a fa 3f 70 8a 06 3d b3 0e c9 3e
       -0.32744434 1.956856 0.032846868 0.39269027
000060 e1 35 2e 3f 39 5f 8a 3f 50 00 e6 3f 28 2a 9b bf
       0.6805096 1.081031 1.7968845 -1.212224
000070 b8 1e 9c 3f 26 d9 37 be fa 2d d7 3e 10 af aa 3f
       1.2196875 -0.1795393 0.42027265 1.3334675
000080 4b 06 41 3e b4 3f 69 bf fb cd ba be 48 12 8e 3f
       0.18850057 -0.9111283 -0.36485276 1.1099329
000090 9e f4 18 3f 1d 0f b4 be 52 71 d7 3f ff f9 7e 3f
       0.59748256 -0.3516778 1.6831458 0.99600214
0000a0 fb fb e4 be 2d 2b d5 be 6b 5a 8e 3d 3d 1a 1e 3e
       -0.44723496 -0.41634503 0.069508396 0.15439697
0000b0 12 99 6b bf dc 82 92 3f 49 dd bb 3f 66 da c5 3f
       -0.9203044 1.1446185 1.4676906 1.5457275
0000c0 b8 61 b8 3f ca bd 62 bf 52 4e 54 3f 90 b3 15 bf
       1.4404821 -0.88570845 0.8293201 -0.58477116
0000d0 a0 a4 40 3f 78 28 f5 3f 89 fe b4 bb 58 e8 0b be
       0.752512 1.9152975 -0.005523507 -0.13662851
0000e0 6d 00 b2 3f 7f 42 7a bf db 1a da 3e cc c5 47 3f
       1.390638 -0.97757715 0.42598614 0.7803619
0000f0 44 02 bc 3f 87 9a d1 be 4c d3 52 3f 1b 44 28 bf
       1.4688191 -0.40938208 0.82353663 -0.6572892

layer2.bias f4 [8]
000000 8b 4c 10 3f 6b f1 7f 3f 9a fa 1d 3f ee 66 ab bd
       0.56366795 0.9997775 0.6171051 -0.08369242
000010 68 1b a1 3e 50 b8 ce 3e 5a b6 30 3f fd 46 05 3e
       0.31466222 0.40374994 0.69028246 0.13015361

layer3.weight f4 [14, 8]
000000 1a 3e 7f bf e9 77 41 3e 75 2b 20 3f fd ac fb 3e
       -0.99704134 0.18893398 0.6256631 0.49155417
000010 de 5d f6 bf 7f 41 8e bf d7 34 91 be 26 c0 3c bf
       -1.9247396 -1.1113738 -0.28360626 -0.73730695
000020 86 47 0d c0 e9 ca c0 bf 95 11 ee bc 49 6f 35 3e
       -2.2074904 -1.5061923 -0.029061118 0.17718233
000030 72 cc 1c 3d 0a 1b 5f 3e e3 47 82 3e 01 da 15 3f
       0.03828091 0.21787658 0.2544547 0.5853577
000040 b8 4d 39 bf f2 4d 3b 3d e9 9f 8b bd 4e eb 30 3f
       -0.72384214 0.04572863 -0.0681761 0.69109046
000050 34 19 c4 be d9 c6 82 3e e6 04 a6 bf b9 ba eb bf
       -0.38300478 0.25542334 -1.2970245 -1.8416358
000060 be ba 04 bd 19 9d 12 be b3 2a b2 bf d8 5f 02 3f
       -0.032404654 -0.1431774 -1.3919281 0.50927496
000070 36 44 a4 3d a0 6c f3 be 49 61 82 bf 55 3f 6b 3c
       0.08020823 -0.47543812 -1.0185939 0.014358361
000080 d9 5d 9d bf c2 e4 12 bd bb 65 b4 bf 38 56 b5 be
       -1.2294265 -0.03586269 -1.4093546 -0.35417342
000090 44 fb bd 3e f8 1b 5c bf 18 4f e6 3e cd b2 30 3f
       0.37105763 -0.85980177 0.4498222 0.6902283
0000a0 74 dc ce 3d 39 76 07 3f d2 d1 3f 3e a7 aa 26 3e
       0.10100642 0.5291477 0.18732384 0.16276036
0000b0 cb 4b a8 bf 9e e8 bc bf b8 0a b6 bf 67 91 2a bf
       -1.314813 -1.4758489 -1.4222021 -0.66628116
0000c0 7d 03 99 3e c5 84 04 3e 59 9e 76 bf 43 26 8d bf
       0.29885474 0.12941273 -0.9633537 -1.1027302
0000d0 11 98 ad 3e 7b e8 cc bf c8 9f f1 be 7f f7 9d be
       0.3390508 -1.6008447 -0.47192216 -0.30852887
0000e0 d7 2f 8f bf 7a 08 8f bd ba df ba bf ee d6 8c bf
       -1.1186475 -0.06984039 -1.4599526 -1.1003091
0000f0 e3 8e 33 3f 92 1f 86 3f a9 7b 2a bf ca 07 66 3e
       0.701399 1.0478384 -0.6659494 0.22463909
000100 66 51 01 c0 c9 1a 82 bf 71 5a 0a 3f 54 d9 c0 3e
       -2.0205932 -1.0164424 0.5404425 0.37665808
000110 72 18 fd be bc 91 87 3f 3a 5b 97 3e 9f 58 c2 bf
       -0.49432713 1.059135 0.29561788 -1.5183295
000120 89 58 69 3f 07 fe 4d 3f c9 7a 6b bf 55 e6 af bf
       0.9115072 0.8046574 -0.9198423 -1.3742167
000130 60 92 b2 bf e1 b3 0a be 3f 0f ff be 3b 44 cf bf
       -1.395092 -0.13545181 -0.4981632 -1.6192697
000140 e6 c5 a4 3e d8 7e 41 be 33 8a 48 3f df f2 db bd
       0.32182235 -0.18896043 0.78335875 -0.10739683
000150 a1 f8 2c c0 f0 e4 b5 bb 32 2a 16 3e 00 0c 0f c0
       -2.702675 -0.005550973 0.14664534 -2.2351074
000160 d2 30 18 be 83 92 f3 bd 60 23 2e 3e 53 c8 f1 be
       -0.14862373 -0.11893179 0.17005682 -0.47223148
000170 6f b7 2f 3e 6d fd 71 be 29 af 05 3f 93 b1 9e be
       0.17159818 -0.2363183 0.522204 -0.30994853
000180 b1 ae 14 c0 ad e5 af 3d 78 e4 9a bd 7e 50 b6 3e
       -2.3231623 0.08588729 -0.07563108 0.35608286
000190 2e fc 3f be ba 36 30 bf e8 87 53 bc a2 4a b4 3e
       -0.18748543 -0.68833506 -0.012910821 0.3521319
0001a0 dd b5 a7 bf 33 02 33 bf bf 4b ed 3e 5c b1 5c 3d
       -1.3102375 -0.6992523 0.46346852 0.05388008
0001b0 47 3f f6 bf 58 54 64 bf 7d 7d 6b 3f dc bd db 3e
       -1.9238061 -0.891912 0.91988355 0.4291829

layer3.bias f4 [14]
000000 bc d2 b7 3c 1d 82 16 bf bd b7 b8 bd 20 b5 b3 be
       0.022439353 -0.5879229 -0.0901942 -0.35099125
000010 c4 f7 da be c5 95 77 3e 47 f4 e0 3d f0 3c 17 3f
       -0.42767155 0.24178226 0.10984092 0.5907736
000020 8c 50 6f 3e d0 50 98 3e 33 cc 53 3e 4c 36 9d 3e
       0.2337057 0.29749155 0.20683365 0.30705488
000030 87 e7 5e be d1 3a fe 3c
       -0.21768008 0.031033905
